Heart_Care/data.pth (torch, 12266 bytes, 6 tensors)

l1.weight f4 [8, 164]
000000 b9 05 60 3f ef 78 a7 3e 73 b0 a7 3e 4e 95 27 be
       0.8750873 0.32709453 0.32751808 -0.16365549
000010 8e ab 7d 3d 18 89 0d 3e 0c d4 67 3f 1b 5a a1 3f
       0.061931185 0.13821828 0.9055793 1.2605623
000020 b3 45 b2 3e eb 6e f8 3e cd 48 08 3e c8 e6 31 3f
       0.348188 0.48522124 0.13309021 0.6949277
000030 e5 d2 c6 3d d5 55 8b 3f 04 65 c4 3f 03 17 99 3f
       0.09708194 1.0885569 1.5343328 1.1960148
000040 5d 6f ca 3f c9 7a 35 3e ae d5 cf be ab f7 dd 3e
       1.5815235 0.1772262 -0.40592712 0.43353018
000050 5c 74 a2 3f 08 fc 19 40 55 0d 31 3f ab 6e 30 bf
       1.269176 2.4060078 0.6916097 -0.68918866
000060 40 5d af be 44 3e 92 3d 9d 39 0c bf 8f 8c 7b 3f
       -0.34250832 0.071407825 -0.5477541 0.9826135
000070 a1 0b ce be f6 f2 26 bf 31 59 0b bf 5b 6e 89 bf
       -0.40243247 -0.6521448 -0.5443297 -1.0736803
000080 7b bc f4 3f 3f 9e 93 3e 4e 01 8f 3f 51 56 b4 3f
       1.912002 0.2883167 1.1172273 1.4088842
000090 2e b0 a9 3e 39 d9 c4 3f c0 1c 25 3f a1 04 23 be
       0.33142227 1.5378791 0.64496994 -0.15919735
0000a0 8f 49 57 3f e0 b8 80 bf 5a 2f ca 3e 6d 29 15 3f
       0.84096617 -1.0056419 0.3948925 0.58266336
0000b0 8f bc e4 3e df f4 8a 3e ab d0 6d 3f 0b d6 f5 be
       0.4467511 0.27139947 0.9289653 -0.48014864
0000c0 44 6a 26 3f 5a 97 f9 3e 97 4c 33 3f 2f 38 1b be
       0.650059 0.48748285 0.7003874 -0.15158151
0000d0 4a 36 48 3f bb a2 34 bf 07 bf 17 3e d8 9d 88 3f
       0.7820784 -0.70560807 0.14818965 1.067317
0000e0 cc d6 e5 3f ef 06 39 bf 49 0d a4 3e b6 91 88 3e
       1.7956176 -0.72276205 0.32041386 0.2667367
0000f0 59 f8 48 bf 96 68 d2 3e d3 88 b3 3e 70 92 31 bf
       -0.7850395 0.41095418 0.35065326 -0.6936407
000100 e1 b2 b7 be 03 1f d5 3e 2e fc f5 3f 83 2b 47 bd
       -0.3587866 0.41625223 1.9217584 -0.04862548
000110 d1 b1 4c 3e 67 b5 12 3f 5c ca 91 3e 56 42 87 3e
       0.19989707 0.5730805 0.284747 0.26417798
000120 67 da 75 be 5f ca 84 3e fd c5 a5 3f 96 6d ff 3e
       -0.24009095 0.25935647 1.2951046 0.49888295
000130 4c 35 15 3e 7f a4 ca be 3a be c8 3e 6d aa 8b 3f
       0.14571112 -0.39578626 0.3920763 1.0911385
000140 9d 8d 0d 3f 01 c3 c6 3e 4f 6d f6 3e 95 ea 1f 3f
       0.5529421 0.3882065 0.4813027 0.6246732
000150 33 1a d7 3f 42 4b 7e 3f df 34 98 3f 4b 3e 5b 3f
       1.680487 0.99333584 1.1891135 0.85641927
000160 53 d1 5c 3f ea e2 68 3f ed 24 8a 3f 56 d6 b5 3e
       0.86256903 0.90971243 1.0792519 0.35515088
000170 a1 90 d3 3e 8b 68 53 3d 5e 3b 87 bf 38 26 7c 3f
       0.4132128 0.05161337 -1.0564992 0.9849582
000180 3f 88 c2 3e 26 4a e0 bc 3d a1 8c bc 39 86 46 be
       0.37994573 -0.027379107 -0.017166728 -0.1938714
000190 91 95 cc 3e 3f ee 3f 3f a8 09 08 3f 7f b6 af be
       0.3995786 0.7497291 0.53139734 -0.3431892
0001a0 75 f6 74 3d d1 e7 4d bf 60 c9 97 3f 46 36 c4 3f
       0.059805352 -0.8043185 1.185833 1.5329063
0001b0 34 83 50 3f 14 c9 05 bd 8f c5 0b 3f d5 13 27 3e
       0.814502 -0.032662466 0.54598325 0.16316159
0001c0 37 f2 06 bf 85 03 71 3f 73 99 fc be 45 d5 3e bf
       -0.5271334 0.94145995 -0.49335822 -0.74544173
0001d0 79 94 28 3f 01 ba 8f bf 09 eb 07 be 24 25 69 be
       0.6585155 -1.1228639 -0.13273253 -0.22768074
0001e0 c7 1b d5 3e bd c8 e9 3d ec 1e 80 3c a1 52 20 bf
       0.41622755 0.11415241 0.015639745 -0.6262608
0001f0 0f 8f e2 be 2e 6b 85 3f 09 d4 23 3f 2c 12 26 3f
       -0.4424977 1.0423334 0.63995415 0.6487148
000200 4f 37 da 3b c1 8e cc be 70 03 01 3f b3 b1 94 bf
       0.0066594253 -0.39952663 0.5039587 -1.161673
000210 82 3b 7d be 57 52 f3 3d 6e fb b6 3e 15 10 b6 3f
       -0.24729732 0.118809395 0.357387 1.4223658
000220 c1 f2 44 be e3 e0 c8 be 31 e6 57 bc 49 66 a5 3f
       -0.19233228 -0.39234075 -0.0131774405 1.292184
000230 fa b1 65 3f 43 80 87 be 96 1a 82 3e 2e 13 3e bf
       0.89724696 -0.26465043 0.25410908 -0.74248016
000240 1d d3 d4 3f af 92 79 3f a8 c3 21 3f da 28 17 3f
       1.6626927 0.97489446 0.6318917 0.5904671
000250 de 5d 10 3f 59 a6 cb 3f ac 65 8c 3f da 1a 7a 3e
       0.5639323 1.591014 1.0968528 0.24424306
000260 49 fa 30 3f b0 36 38 3f 38 db 09 3e 6f aa d2 3f
       0.69131905 0.71958447 0.13462532 1.6458262
000270 9a 8a 7e 3f 9e 46 b1 bc 4e cb 1d 3f 26 7d 1d 3f
       0.9943024 -0.021640118 0.61638343 0.61519086
000280 cd 85 54 3f e5 d5 aa be aa 45 8a 3e 81 21 3d bf
       0.83016664 -0.33366314 0.27006274 -0.7387925
000290 5a e5 86 3f 95 2f b9 3e d7 dc c2 3e 12 f2 9a 3e
       1.0538743 0.36169115 0.38059112 0.3026281
0002a0 6c 1a 10 3f e0 65 20 3f 3a 92 21 3f 50 68 23 bd
       0.56290317 0.6265545 0.6311375 -0.039894402
0002b0 eb 35 24 3f ca 78 0e 3f 94 17 6e 3e ae 40 e2 3f
       0.6414477 0.5565306 0.23251182 1.7675989
0002c0 02 cb 51 bf a6 26 67 bf 43 b2 38 3f 61 0c ba 3e
       -0.8195039 -0.9029335 0.72147006 0.3633757
0002d0 91 7a 55 3f e0 78 07 3f f4 57 fc 3f d9 ba 50 3e
       0.83390146 0.52918816 1.9714341 0.20383777
0002e0 a7 41 c8 3d 4a bf f9 3f 5e b3 21 3f 80 5d 85 3f
       0.09778147 1.9511502 0.6316432 1.0419159
0002f0 7c 46 4e 3f c5 fb 9f 3f d5 b7 a6 3f 5c 75 60 3f
       0.805763 1.2498709 1.3024851 0.87679076
000300 b8 12 a1 3f 0b d2 c0 3f 4b 84 8b be b3 52 23 3f
       1.2583838 1.50641 -0.2724937 0.63798064
000310 7e 45 b0 bf ed 0f 18 3e 76 71 47 3f ed ae 77 be
       -1.3771207 0.14849825 0.779075 -0.24187823
000320 98 11 6b 3f 98 aa 3e bd 9a 79 54 3f fc 5b 65 be
       0.9182372 -0.04654941 0.8299805 -0.2239837
000330 90 4e cf 3e a6 6c 23 40 78 1f b0 bf 24 97 a7 3f
       0.40489626 2.5535064 -1.3759604 1.3093
000340 1b 73 e6 3f 76 93 dd bd 01 79 bf 3f 4e a1 92 3f
       1.8003877 -0.108191416 1.4958802 1.1455476
000350 74 0b a0 3f bd 0a 91 3f 61 e0 87 bd 50 98 ef 3e
       1.2503495 1.1331402 -0.06634594 0.46795893
000360 18 30 84 3f 81 8a 0f 40 93 86 e4 3e bc bc d6 bc
       1.0327177 2.2428286 0.44633922 -0.026213042
000370 65 f2 9b 3f e1 2e e9 3e b8 9f cd 3d e1 5e e5 3c
       1.2183348 0.45543578 0.100402296 0.027999343
000380 3e 47 94 3f c1 7d 81 be fe 64 79 3f f9 d6 98 3f
       1.1584241 -0.25291255 0.97419727 1.1940604
000390 26 4a a5 3f c1 13 a3 3e 21 56 af bf f3 64 4b 3f
       1.2913253 0.3185101 -1.369816 0.7945091
0003a0 0e 1f 96 3f e3 15 5f 3f c9 54 9c 3f 1c c3 9f 3f
       1.1728227 0.8714277 1.2213374 1.2481418
0003b0 c5 76 ed 3e 76 f0 9e 3f 83 fa 24 bf 68 dd 70 3e
       0.46379676 1.2417133 -0.6444475 0.2352196
0003c0 98 f9 49 3d 9b a3 38 3f 45 86 34 3f de 73 d3 3f
       0.049310297 0.7212464 0.7051738 1.6519735
0003d0 64 86 09 3f c8 c4 47 3d c0 d8 9b 3f 32 3f a3 3f
       0.5372069 0.04877165 1.2175522 1.2753661
0003e0 1d 02 98 3f 22 bb cf 3e 59 18 31 bf 9f 81 73 be
       1.1875645 0.40572459 -0.69177777 -0.23779915
0003f0 af 2c 94 3f 09 3b 26 bf 7a f5 d3 3f 8a 84 1f be
       1.1576136 -0.6493383 1.6559289 -0.15577903

l1.bias f4 [8]
000000 7e 7e 11 40 47 cc 23 40 8e f3 cc 3f 11 eb b8 3f
       2.2733455 2.559343 1.6011827 1.4446737
000010 47 8b 16 40 25 c8 ed 3f 82 5c 10 40 55 c3 07 40
       2.3522508 1.8576704 2.2556462 2.1212971

l2.weight f4 [8, 8]
000000 f9 93 ff 3f 15 bc f7 3e 33 70 e3 3f 4c 21 42 40
       1.9967033 0.48385683 1.7768615 3.0332823
000010 40 b7 1d c0 86 5c 02 40 20 fa 2d 40 3e 56 83 3f
       -2.4643097 2.0368972 2.7183914 1.0260694
000020 51 61 17 3f 57 10 5e 40 01 3d b9 bf a9 c4 ec 3f
       0.5913287 3.4697473 -1.4471742 1.8497516
000030 ca e5 8d 3e 8f 9d 41 3f 7b ee a5 3f 18 f3 23 40
       0.27714378 0.7563104 1.2963403 2.5617123
000040 29 10 94 3f 5b 98 5a 40 62 a2 53 40 38 26 45 bf
       1.1567432 3.415549 3.306786 -0.7701144
000050 1e 45 33 40 90 10 87 be 15 26 16 40 83 5c a9 bf
       2.8010936 -0.26379824 2.3460743 -1.3231357
000060 96 26 21 40 b2 e1 6d 3f 78 7c e4 3d b7 81 4f 40
       2.51798 0.9292251 0.11156553 3.2422922
000070 43 72 31 40 43 d2 08 3f 9b f3 f1 bf fc 2c 21 40
       2.772599 0.53445834 -1.8902467 2.5183706
000080 e0 a8 ff 3e 04 8d 34 40 6e e0 ad 3f a0 63 78 bf
       0.4993353 2.821107 1.3584116 -0.97027016
000090 a2 e1 1f 3f 45 fd 5a 40 54 e6 61 bf f0 fe 4a 40
       0.62453663 3.4217083 -0.8824208 3.1718102
0000a0 6e e8 33 40 41 a2 97 3f 75 32 50 bf 79 d0 9f bf
       2.8110614 1.1846391 -0.8132699 -1.2485496
0000b0 08 c0 11 40 74 e2 a1 be 60 c8 5c 40 94 29 b1 3f
       2.2773457 -0.31618083 3.44973 1.3840814
0000c0 ea 22 ea bf f6 02 fa 3f 95 67 08 40 dc ee 03 40
       -1.8291905 1.9532154 2.1313221 2.0614538
0000d0 23 ec f5 3f af 58 9e 3f 7a f7 10 40 af b2 aa 3f
       1.9212688 1.2370814 2.2651048 1.333578
0000e0 ab bc 26 40 e0 95 98 bf af 8e 0f 40 a1 2f 18 bf
       2.6052654 -1.1920738 2.2430837 -0.59447676
0000f0 b2 68 ee 3f f6 85 6f 40 ab 88 16 40 43 5c a2 3f
       1.86257 3.7425513 2.3520916 1.2684406

l2.bias f4 [8]
000000 e2 12 60 3e 5f 9c c9 3f ef 40 a5 3f 68 a1 85 3f
       0.21882203 1.5750846 1.2910441 1.0439882
000010 55 c2 ac 3e 5a 50 93 3f c6 90 03 be 18 9f a8 3f
       0.33742014 1.1508896 -0.12848195 1.3173552

l3.weight f4 [39, 8]
000000 e3 16 09 3f 89 18 c6 bd fb 33 e4 bf 79 70 ac be
       0.5355055 -0.096726485 -1.7828363 -0.3367956
000010 a8 72 17 bf 87 39 2b be 1d b7 f6 be b1 35 e9 bf
       -0.59159327 -0.16721164 -0.4818658 -1.821951
000020 a7 25 a5 bf d0 09 47 c0 6c b7 6b 3f d1 69 30 3e
       -1.2902116 -3.109974 0.92076755 0.17227866
000030 fe 98 67 c0 bd b4 80 3f c4 60 3e bf 2c 7f f2 3e
       -3.618713 1.0055157 -0.743664 0.4736265
000040 e9 9d 88 bf 95 a7 5e bf 0e eb 04 bf 9d 32 66 bf
       -1.067319 -0.8697446 -0.51921165 -0.8992098
000050 0c 8e d8 3e 15 17 88 bf 76 ba dc be 0d 2b 16 bf
       0.42295873 -1.0632044 -0.43111008 -0.5865944
000060 40 30 95 3e eb f4 27 bf 65 5a 77 bf d9 04 1c 3f
       0.29138374 -0.6560809 -0.96622306 0.60944897
000070 a7 f3 1e bf 50 42 0f c0 4c 57 93 bf 26 c6 74 be
       -0.62090534 -2.2384224 -1.1511016 -0.23903713
000080 29 78 57 bd e6 03 b1 bf 41 f8 12 be 6f a5 0c be
       -0.052604828 -1.3829315 -0.14352514 -0.13734983
000090 e5 9b 13 3e 08 51 b0 bd 26 d6 56 c0 34 86 26 be
       0.14414938 -0.086092055 -3.3568206 -0.16262132
0000a0 34 c2 7c 3e f1 f8 76 bf 8d 17 4f c0 b7 0d d3 be
       0.24683458 -0.96473604 -3.2358124 -0.412214
0000b0 22 b1 d6 be bf d2 08 bf 45 be a9 bd 52 d2 87 3e
       -0.41932017 -0.53446573 -0.08288244 0.2652765
0000c0 f4 1e 2e c0 d3 1a 1a c0 77 f0 0a 3f ae 33 e0 be
       -2.7206392 -2.4078872 0.5427317 -0.43789428
0000d0 bc 82 1a 3b 46 4c 66 bf 3e e2 82 3e 14 e8 7f be
       0.002357646 -0.89960134 0.25563234 -0.24990875
0000e0 8a 9e 53 3e d1 77 67 c0 bc fb a2 be f5 82 08 3f
       0.20665947 -3.616688 -0.31832683 0.53324825
0000f0 53 a8 c6 bf 75 a3 dc bd 72 9d bb bf b1 77 4b 3f
       -1.5520118 -0.107733645 -1.4657423 0.7947951
000100 b7 56 43 be cc 77 17 be bb b8 4d 3e 68 0d 9d bf
       -0.19076048 -0.14791793 0.2009 -1.2269716
000110 b9 eb 9f bf 45 98 20 3e 24 d8 f7 bf 3c ae 42 bf
       -1.2493812 0.15683086 -1.9362836 -0.7604711
000120 1c a2 c9 bf 8b 58 10 c0 d2 69 24 bf 0a cd d0 3e
       -1.5752597 -2.2554042 -0.6422397 0.40781432
000130 0a 30 96 3e 81 c0 44 bf 77 8b 90 bf 06 9a c8 3e
       0.29333526 -0.7685624 -1.1292561 0.3918001
000140 bd 3a 9e 3e e1 ba 46 c0 76 f9 ad 3e 3b f5 1a c0
       0.3090419 -3.1051562 0.33979386 -2.4212177
000150 22 69 3a bf 5e aa 82 bd 90 a7 1b bf e7 f4 a4 3e
       -0.7281667 -0.06380151 -0.60802555 0.32218096
000160 4a 18 b8 3d 72 21 95 be 81 a9 c7 3d 31 c2 d0 3d
       0.08989008 -0.2912708 0.09749127 0.10193289
000170 9e 1e 01 c0 0e 66 f6 be 0c a2 43 bd a3 44 0f c0
       -2.0174937 -0.48124737 -0.04776196 -2.2385643
000180 f6 00 0b bf 80 c4 5d 3e 28 79 1f c0 d6 c3 12 bd
       -0.5429834 0.2165699 -2.4917698 -0.035831295
000190 fb ff 08 3f e7 98 b4 bf cf f9 43 bf 74 00 39 bf
       0.53515595 -1.4109162 -0.7655305 -0.72266316
0001a0 fc f9 c5 3e 64 06 e6 be 8e d2 1a c0 17 01 2a 3f
       0.38667285 -0.4492675 -2.4191012 0.6640791
0001b0 7d 6e fc bf 0a 43 2b 3f 62 1d c7 bf fa e3 01 bf
       -1.9721218 0.6689917 -1.5555842 -0.5073849
0001c0 bd 8b f5 bf fe cd e0 3e 86 38 a9 3e e0 a1 6f 3e
       -1.918327 0.4390716 0.33050936 0.23401594
0001d0 ce b2 8d 3e 0b 2b 3b 3f 50 40 53 c0 ce 6f 28 c0
       0.2767548 0.73112553 -3.3008003 -2.631824
0001e0 fd d7 95 bf 95 b7 ff bf ab 55 6d 3e 9c 1b e7 be
       -1.1706539 -1.99779 0.23177211 -0.45138252
0001f0 e9 49 27 bf 23 1b 59 3e 64 3c 86 bf 8c ad 26 be
       -0.6534715 0.21201758 -1.048718 -0.1627714
000200 5a 9c 0d bf 42 de 30 3f 0c 13 03 c0 ae 48 41 3f
       -0.553167 0.6908914 -2.0480375 0.75501525
000210 13 77 09 3e 7e b7 ee bf 6f b4 0e 3e 43 ab 37 c0
       0.1342433 -1.8649747 0.13936017 -2.869828
000220 54 18 c1 bd 1a de 0d c0 19 df 1e 3e a0 9f d4 bf
       -0.09428468 -2.216681 0.15514793 -1.6611214
000230 c7 87 b4 3e 8f 49 1a c0 c8 49 3a be a4 e7 2c 3e
       0.3525984 -2.4107397 -0.18192208 0.16885239
000240 44 52 89 3c f7 3c 3e be b7 ce 1b bf b8 da cc bf
       0.01676286 -0.18577944 -0.60862297 -1.6004248
000250 b6 c6 64 bf 38 5d 79 bf ee 9b c3 3d ae 98 7b bf
       -0.8936571 -0.97407866 0.095512256 -0.98279846
000260 d9 9a 9d 3e 3c 2f 69 bf da 9a 09 c0 0a 08 2d bf
       0.30782202 -0.910877 -2.1500764 -0.6759039
000270 4a 70 3c bf 0d d6 1f 3f e9 98 0e c0 d1 62 fa 3e
       -0.7360884 0.6243599 -2.228083 0.48903516
000280 24 8e b5 3e e9 ca cc bf 2a 9d 49 3f 19 36 e7 bf
       0.35460007 -1.5999423 0.7875544 -1.8063384
000290 ad 1d 29 c0 5f 97 48 be c7 4b 1a 3e 38 51 19 bf
       -2.6424363 -0.19588993 0.1506797 -0.59889555
0002a0 71 3c 2d 3f e1 bf ac bf aa a8 ac be 1b 04 45 bf
       0.6767035 -1.3496057 -0.3372243 -0.7695939
0002b0 fd e7 84 bf e0 b1 17 c0 55 54 01 3f 69 9f df be
       -1.0383297 -2.3702316 0.50519305 -0.43676308
0002c0 c7 73 9e 3e 70 70 56 be d9 05 46 bf e4 e9 79 be
       0.30947706 -0.20941329 -0.7735267 -0.24405628
0002d0 79 f4 92 3e c9 28 1c c0 04 63 61 3d 1d 43 f6 bf
       0.28702143 -2.4399893 0.05502607 -1.9239231
0002e0 74 52 c8 be e9 df 4e bf 9a 3b b7 3e f2 3b c8 bf
       -0.39125407 -0.8081041 0.3578766 -1.5643294
0002f0 95 a6 a4 3e c8 a8 09 c0 e2 1d 99 3d ee de a9 bf
       0.32158342 -2.1509266 0.07476403 -1.3271158
000300 3b 1e d7 3e 63 56 e4 bf 9c d3 c5 3d 43 18 f1 3e
       0.42015252 -1.7838863 0.09659502 0.47088823
000310 2e 61 4f c0 f4 fa 9c be 7e af 1c bf 65 87 c2 be
       -3.2403064 -0.30660212 -0.6120528 -0.37993923
000320 e1 c9 92 bf 5e ea 3c c0 48 77 ab 3d 18 b9 d8 bf
       -1.1467859 -2.9518046 0.083723605 -1.6931486
000330 23 24 c1 bf 3a 54 8e 3d 99 9f 2e 3f a9 a9 2a 3f
       -1.5089153 0.06949659 0.68212277 0.6666513
000340 dd a4 b2 bf 84 a1 c4 3e 6e 16 06 bf d9 c0 4c bf
       -1.3956562 0.38404477 -0.52377975 -0.7998176
000350 66 9a d6 3c ca 09 ee bd 39 12 dc bd b9 ca 26 c0
       0.02619667 -0.11622961 -0.10745663 -2.6061232
000360 f5 f0 f2 be 6a 51 a9 be 31 ee 20 c0 38 03 26 3f
       -0.4744946 -0.33069927 -2.514538 0.6484866
000370 da ee 8c 3e af 5a dc 3d 96 32 40 c0 d7 0c a7 bd
       0.2752598 0.10759484 -3.0030875 -0.08156746
000380 a3 57 1a c0 43 07 11 bf c1 20 90 bf 18 ea ee 3e
       -2.411599 -0.56651706 -1.1259996 0.46662974
000390 86 2f 58 3e e6 0b 74 3e d3 1e 6a bf 38 a4 98 bf
       0.21111879 0.23832664 -0.91453284 -1.1925116
0003a0 62 91 a4 bf 0a d5 22 bf c3 09 db bd 1e 6c fc 3e
       -1.2856867 -0.6360632 -0.10695221 0.49301237
0003b0 26 c9 a3 3d 4c 40 12 c0 08 45 b0 3e f4 a1 e8 bf
       0.079973504 -2.2851744 0.34427667 -1.8174424
0003c0 55 28 40 3f 64 8b 0e c0 74 70 ab 3e f5 0f d9 bf
       0.7506154 -2.2272577 0.33484232 -1.6957995
0003d0 c8 f4 1f c0 fc 77 64 3f e9 cc 04 c0 00 72 27 3f
       -2.4993153 0.8924558 -2.0750067 0.65408325
0003e0 2f e1 d7 3e d3 63 01 c0 ba ac 7c bf ac ba 86 bf
       0.4216399 -2.0217178 -0.9870106 -1.0525718
0003f0 c1 d6 8b be 6e 6e 4a bf 6b 48 26 bf d1 e2 77 3e
       -0.27312282 -0.7907475 -0.6495425 0.24207617

l3.bias f4 [39]
000000 96 44 0f 3c 4f 31 a0 3e e4 97 ad 3c cd 26 84 3e
       0.0087443795 0.3128762 0.021190591 0.25810853
000010 a1 5a bd be cf 28 eb be 2e 60 3e bd 77 e3 9e 3d
       -0.36983207 -0.45929572 -0.046478443 0.07758229
000020 aa 7a b7 3d e5 83 a9 3d b9 dd 04 bf 6e 6a a6 bd
       0.08958943 0.0827711 -0.5190082 -0.081257686
000030 7d 88 aa 3d f1 2f 6c 3e 28 26 ed 3e 5f 83 2e bf
       0.08326814 0.23065163 0.46318173 -0.68169206
000040 d6 49 c2 bc 94 52 84 3e 1b f3 ed be 41 a5 20 be
       -0.023716848 0.25844252 -0.46474537 -0.1568804
000050 22 22 0f 3d 46 4c 23 be 34 ae 72 be 6c 00 42 bf
       0.03494466 -0.15947065 -0.23699266 -0.75781894
000060 28 80 f0 be 8e 31 37 3e a6 04 a7 be db bf b9 bd
       -0.46972775 0.17889997 -0.32620734 -0.09069797
000070 27 44 83 be 8d 9f 25 3d 38 64 8a 3e d6 ff d0 3d
       -0.25637934 0.040435363 0.27029586 0.10205047
000080 76 92 0f 3f bb 87 00 bf 18 31 86 3e e2 75 d4 3e
       0.56082857 -0.5020711 0.2620933 0.41496187
000090 c2 25 8b 3e fc 38 a9 3e 74 d6 14 3e
       0.27177244 0.33051288 0.14534932
